…
	cls/predictions/transform/LayerNorm/beta
	cls/predictions/transform/LayerNorm/gamma
	cls/predictions/transform/dense/bias
	cls/predictions/transform/dense/kernel
	cls/seq_relationship/output_bias
	cls/seq_relationship/output_weights
Model: "functional_1"
_________________________________________________________________
Layer (type)                 Output Shape              Param #   
=================================================================
input_ids (InputLayer)       [(None, 128)]             0         
_________________________________________________________________
bert (BertModelLayer)        (None, 128, 768)          108890112 
_________________________________________________________________
lambda (Lambda)              (None, 768)               0         
_________________________________________________________________
dropout (Dropout)            (None, 768)               0         
_________________________________________________________________
dense (Dense)                (None, 768)               590592    
_________________________________________________________________
dropout_1 (Dropout)          (None, 768)               0         
_________________________________________________________________
dense_1 (Dense)              (None, 2)                 1538      
=================================================================
Total params: 109,482,242
Trainable params: 109,482,242
Non-trainable params: 0
